code/cartpole/models/CartPole-v0_best.pt (torch, 4183 bytes, 4 tensors)

weight f4 [50, 4]
1.068643 0.79512864 3.856656 1.4085003 -0.17818645 0.1825838 0.36312416 0.091214806
0.091436155 0.02739517 -0.13004188 0.021200238 0.050089642 -0.1241216 -0.3446401 -0.030903382
-1.7362847 -0.89532435 2.8493557 -0.12463365 -1.2126887 -0.936158 -5.8725734 -0.55697757
-0.017665632 0.037378144 -0.012814711 -0.05314028 -0.12067069 -0.19822255 12.798677 0.3387066
-0.21362226 0.20542091 8.748256 0.58730036 -0.30297714 0.33328557 -1.0832714 0.1709387
-1.2194014 -0.56073564 -1.675605 -0.5459015 0.049231548 0.06837106 0.054987457 0.036582146
-0.09076014 0.010993127 -0.66302156 0.114114136 -1.1465895 0.45999184 5.446219 1.1465925
0.33875564 -0.23639826 -4.4704437 -0.61683106 -0.07319209 -0.058465023 0.07077908 0.028331423
-0.40862292 0.42124513 1.6032279 0.039891105 -0.20776682 0.54627633 -1.1691988 -0.006329917
-0.28164497 0.25147474 -1.9662491 0.10045082 -0.97200453 -0.6066677 -0.034213107 -0.25555313
-0.18606764 0.040381845 0.37042776 0.20085186 0.07842577 -0.54185396 -4.9537735 0.29587704
0.0005851955 -0.017415524 0.07201812 0.047454935 1.3197888 0.5056498 -3.0010548 -0.40452814
-1.1373389 -0.19583918 5.7018404 0.50703907 -2.4196367 -0.5709869 -6.716499 -0.4485339
-0.5270852 0.51297355 -1.303648 0.29311952 -0.16519389 -0.43980107 -2.08617 1.486335
-0.13342299 0.0056305625 0.0024219898 0.009309824 -0.09398278 0.10483762 -0.015737018 0.14767914
-0.19947158 0.030650113 -2.4454284 -0.41547057 0.01049617 -0.57200384 -1.4427096 1.6622603
-0.19579972 0.082034044 0.20483156 0.012185755 0.0646539 -0.05045711 -7.486855 -0.5717778
-0.05948186 0.016222114 0.100465335 -0.006278984 -0.20641989 0.5773112 -0.35033524 -0.04724065
-0.14890313 -0.024147071 0.044816736 0.09501335 -0.076508366 -0.0029576593 0.306794 0.26480338
-0.27958313 -0.10143164 9.742481 1.2481874 -0.06575939 0.041814834 0.23945852 -0.0048318733
-3.452197 -1.1521058 -1.222416 -0.5441756 0.027694702 -0.06627591 -0.15762605 0.043930173
-0.07011168 0.03749773 -1.1788795 0.18218307 -0.042721473 0.06283361 -0.23190323 0.1287702
-0.14771652 -0.04799599 -0.76694286 0.29420596 0.16955398 -0.025723604 -0.17325728 0.02141057
-0.14821503 0.11892932 -0.018198676 0.049053606 -2.6959646 -1.3007667 -5.2873015 -1.280526
-0.043464463 0.077664755 -1.8192961 0.28698978 -0.16438413 -0.08077878 0.42416567 0.2893798
00000000: 4bc9 883f 8d8d 4b3f 74d3 7640 bd49 b43f
00000010: 8276 36be 3ff7 3a3e 69eb b93e d4ce ba3d
00000020: e142 bb3d d66b e03c b329 05be 1fac ad3c
00000030: cc2a 4d3d 7733 febd ab74 b0be 1729 fdbc
00000040: 943e debf fa33 65bf d85b 3640 ed3f ffbd
00000050: 6239 9bbf 0da8 6fbf 1fec bbc0 1596 0ebf
00000060: 84b7 90bc d319 193d cbf4 51bc 9fa9 59bd
00000070: 3222 f7bd dafa 4abe 62c7 4c41 f46a ad3e
00000080: cbbf 5abe dc59 523e dbf8 0b41 5159 163f
00000090: d21f 9bbe 68a4 aa3e a3a8 8abf 8e0a 2f3e
000000a0: 5815 9cbf 5f8c 0fbf 3a7a d6bf 33c0 0bbf
000000b0: 05a7 493d 2006 8c3d 873a 613d 29d7 153d
000000c0: 74e0 b9bd 841c 343c c8bb 29bf acb4 e93d
000000d0: 72c3 92bf 0d84 eb3e 6d47 ae40 8bc3 923f
000000e0: 6171 ad3e 6312 72be e00d 8fc0 a4e8 1dbf
000000f0: bce5 95bd 0579 6fbd 9ff4 903d 4d17 e83c
00000100: 0637 d1be 71ad d73e 9236 cd3f db64 233d
00000110: d3c0 54be c4d8 0b3f 4ea8 95bf 316b cfbb
00000120: c533 90be 4cc1 803e 0dae fbbf 29b9 cd3d
00000130: 4ad5 78bf 934e 1bbf 0b23 0cbd dcd7 82be
00000140: 8488 3ebe 6f67 253d b5a8 bd3e 1cac 4d3e
00000150: b19d a03d f1b6 0abf 5085 9ec0 327d 973e
00000160: ce67 193a 00ab 8ebc 3c7e 933d 1b60 423d
00000170: d7ee a83f 4472 013f 4811 40c0 501e cfbe
00000180: 5294 91bf 118a 48be 7a75 b640 50cd 013f
00000190: 54db 1ac0 332c 12bf 8fed d6c0 3ca6 e5be
000001a0: 0eef 06bf 3c52 033f f0dd a6bf c313 963e
000001b0: 9628 29be 9b2d e1be cf83 05c0 3a40 be3f
000001c0: 09a0 08be 9580 b83b 3fba 1e3b 3b88 183c
000001d0: 0b7a c0bd 1bb5 d63d ebea 80bc 3339 173e
000001e0: 4742 4cbe f215 fb3c e681 1cc0 8fb8 d4be
000001f0: 21f8 2b3c d86e 12bf b5aa b8bf f2c4 d43f
00000200: b97f 48be 7701 a83d 5dbf 513e c3a6 473c
00000210: 4469 843d 1dac 4ebd 5194 efc0 0860 12bf
00000220: 40a3 73bd 3de4 843c c5c0 cd3d efbf cdbb
00000230: bc5f 53be abca 133f 245f b3be 697f 41bd
00000240: 107a 18be 14d0 c5bc c191 373d 5c96 c23d
00000250: 6bb0 9cbd 4ad5 41bb 1a14 9d3e 4f94 873e
00000260: 8525 8fbe 64bb cfbd 34e1 1b41 9bc4 9f3f
00000270: dcac 86bd 0846 2b3d 9d34 753e b154 9ebb
00000280: ccf0 5cc0 3478 93bf 2178 9cbf 184f 0bbf
00000290: 00e0 e23c aabb 87bd b968 21be 20f0 333d
000002a0: b696 8fbd 3897 193d 86e5 96bf 338e 3a3e
000002b0: b6fc 2ebd e8ae 803d 0a78 6dbe 56dc 033e
000002c0: 0043 17be 7197 44bd 5e56 44bf 2aa2 963e
000002d0: 8f9f 2d3e 4fba d2bc 5b6a 31be 3865 af3c
000002e0: aec5 17be 3791 f33d 6415 95bc 6fec 483d
000002f0: af8a 2cc0 867f a6bf 9331 a9c0 47e8 a3bf
00000300: cb07 32bd b30e 9f3d b2de e8bf 53f0 923e
00000310: 5054 28be 586f a5bd 3e2c d93e 9729 943e

bias f4 [50]
-0.19381793 -0.2939018 -0.5179053 -0.35074404 2.680917 -0.11498232 -0.4745264 -0.009455717
-0.584374 0.011584349 2.5111234 -0.38440013 -0.7565928 -2.137542 -2.2246172 -0.43335837
-1.5034329 0.1518066 0.054368682 0.94461906 -0.81895804 -1.1313006 -0.34521934 -0.53085655
2.043303 0.13660404 0.08390585 -1.0777844 -0.31273246 -0.35076362 0.5660562 -0.115318775
-0.3297506 -0.23887537 -0.14782614 -1.2045497 -0.5494542 -0.81831545 -0.8077719 -0.12768835
-0.06884874 -0.43868232 -0.42528227 -0.521373 -0.83989435 -1.0958014 -0.39853752 -0.26362196
-0.4669713 -0.7125305
00000000: 3578 46be 4c7a 96be 7195 04bf b994 b3be
00000010: 2594 2b40 da7b ebbd 20f5 f2be 27ec 1abc
00000020: 8999 15bf 48cc 3d3c 3fb6 2040 18d0 c4be
00000030: 11b0 41bf 7dcd 08c0 2160 0ec0 26e1 ddbe
00000040: 7d70 c0bf 3073 1b3e b2b1 5e3d 8ed2 713f
00000050: 3ca7 51bf 75ce 90bf 97c0 b0be 37e6 07bf
00000060: 7ac5 0240 eee1 0b3e d5d6 ab3d d7f4 89bf
00000070: 781e a0be 4a97 b3be 0fe9 103f 402c ecbd
00000080: 12d5 a8be bf9b 74be bc5f 17be af2e 9abf
00000090: 08a9 0cbf 1f7d 51bf 24ca 4ebf bcc0 02be
000000a0: 9100 8dbd f89a e0be 99be d9be b378 05bf
000000b0: 5103 57bf 3843 8cbf 1c0d ccbe 75f9 86be
000000c0: dd16 efbe 6668 36bf

weight f4 [2, 50]
-1.0424445 -0.04504445 -0.10370797 0.06403265 1.7024918 -1.2905549 -0.11361533 -3.1914203
-0.35959917 0.07536501 1.7784781 0.030240564 -0.18314876 -1.930267 -0.88632584 0.036811605
-0.17641492 0.15057914 0.13011004 0.924388 0.05072228 -0.56102777 0.043723933 -0.87578166
1.000346 -0.797474 0.15388438 -0.29988882 -0.018330334 -0.14929886 0.41157544 -0.24833933
-0.06882585 -1.4574847 -0.068336956 -0.3422705 -0.029074887 -0.110054255 -1.8038332 -0.18698911
-1.6879859 0.038158637 0.044471875 -0.054879613 -0.32774502 -0.22711667 0.13059746 -2.0357444
-0.24545985 0.12163755 -0.82865065 0.07367392 -0.12525228 0.07906853 1.7890261 -1.2933354
0.046653517 -2.557935 -1.4935845 0.0143973855 1.1538161 0.011305962 -0.017190557 -2.363507
0.47663522 0.040056463 -0.11664318 -0.10482178 -0.019121716 0.66404575 0.42729655 -0.7459557
-0.012948231 -0.47955674 2.0195544 -1.7992792 0.020955529 -0.5327836 0.02539869 0.08563184
0.004696863 -0.19809528 0.079446755 -1.3003002 0.02621307 0.12572382 0.23098664 0.22749718
-1.4648753 0.13489501 -1.328013 0.09656106 -0.12731397 0.16562186 0.36906832 -0.30224127
0.13587114 -1.5618353 -0.046884857 0.2311635
00000000: d26e 85bf 8780 38bd d864 d4bd 8d23 833d
00000010: 40eb d93f e730 a5bf 27af e8bd 3b40 4cc0
00000020: 621d b8be f858 9a3d 2ca5 e33f 0fbb f73c
00000030: 598b 3bbe fd12 f7bf 40e6 62bf c4c7 163d
00000040: 1da6 34be 6b31 1a3e 913b 053e b1a4 6c3f
00000050: 2ac2 4f3d 849f 0fbf de17 333d 3a33 60bf
00000060: 560b 803f 4227 4cbf de93 1d3e 078b 99be
00000070: 7f29 96bc cde1 18be 04ba d23e aa4c 7ebe
00000080: 91f4 8cbd dc8e babf 3ff4 8bbd 143e afbe
00000090: 752e eebc 2064 e1bd 02e4 e6bf 137a 3fbe
000000a0: ec0f d8bf 3b4c 1c3d 2428 363d 72c9 60bd
000000b0: 32ce a7be 4691 68be 57bb 053e a349 02c0
000000c0: d459 7bbe 1c1d f93d 7322 54bf 5ae2 963d
000000d0: 2242 00be aeee a13d cffe e43f 048c a5bf
000000e0: c217 3f3d 35b5 23c0 c72d bfbf 03e3 6b3c
000000f0: 3fb0 933f a43c 393c 36d3 8cbc b343 17c0
00000100: 8809 f43e 3f12 243d 9fe2 eebd cdac d6bd
00000110: 25a5 9cbc e7fe 293f 9dc6 da3e f4f6 3ebf
00000120: d124 54bc 7688 f5be 6140 0140 c84e e6bf
00000130: eeaa ab3c 8264 08bf ea10 d03c bf5f af3d
00000140: 24e8 993b 7dd9 4abe fbb4 a23d 3d70 a6bf
00000150: cbbc d63c bfbd 003e c387 6c3e 05f5 683e
00000160: 0981 bbbf eb21 0a3e 54fc a9bf cec1 c53d
00000170: 985e 02be c798 293e 86f6 bc3e 5ebf 9abe
00000180: ce21 0b3e 38ea c7bf 560a 40bd 20b6 6c3e

bias f4 [2]
1.5823693 0.9061511
00000000: 148b ca3f 85f9 673f
